…
        (attention_5): GATLayer(
          (dropout): Dropout(p=0.0, inplace=False)
          (leakyrelu): LeakyReLU(negative_slope=0.2)
        )
        (attention_6): GATLayer(
          (dropout): Dropout(p=0.0, inplace=False)
          (leakyrelu): LeakyReLU(negative_slope=0.2)
        )
        (attention_7): GATLayer(
          (dropout): Dropout(p=0.0, inplace=False)
          (leakyrelu): LeakyReLU(negative_slope=0.2)
        )
        (out_att): GATLayer(
          (dropout): Dropout(p=0.0, inplace=False)
          (leakyrelu): LeakyReLU(negative_slope=0.2)
        )
      )
    )
  )
  (encoder2): FPN(
    (fc1): Linear(in_features=1489, out_features=512, bias=True)
    (act_func): ReLU()
    (fc2): Linear(in_features=512, out_features=300, bias=True)
    (dropout): Dropout(p=0.0, inplace=False)
  )
  (fc_gat): Linear(in_features=300, out_features=300, bias=True)
  (fc_fpn): Linear(in_features=300, out_features=300, bias=True)
  (act_func): ReLU()
  (ffn): Sequential(
    (0): Dropout(p=0.0, inplace=False)
    (1): Linear(in_features=600, out_features=300, bias=True)
    (2): ReLU()
    (3): Dropout(p=0.0, inplace=False)
    (4): Linear(in_features=300, out_features=1, bias=True)
  )
)
Epoch 0
Seed 0
Start loading data
Splitting dataset with Seed = 0.
Dataset size: 1217    Train size: 1217    Val size: 152    Test size: 153
Training Model
FpgnnModel(
  (sigmoid): Sigmoid()
  (encoder3): GAT(
    (encoder): GATEncoder(
      (encoder): GATOne(
        (dropout): Dropout(p=0.0, inplace=False)
        (attention_0): GATLayer(
          (dropout): Dropout(p=0.0, inplace=False)
…
        (attention_5): GATLayer(
          (dropout): Dropout(p=0.0, inplace=False)
          (leakyrelu): LeakyReLU(negative_slope=0.2)
        )
        (attention_6): GATLayer(
          (dropout): Dropout(p=0.0, inplace=False)
          (leakyrelu): LeakyReLU(negative_slope=0.2)
        )
        (attention_7): GATLayer(
          (dropout): Dropout(p=0.0, inplace=False)
          (leakyrelu): LeakyReLU(negative_slope=0.2)
        )
        (out_att): GATLayer(
          (dropout): Dropout(p=0.0, inplace=False)
          (leakyrelu): LeakyReLU(negative_slope=0.2)
        )
      )
    )
  )
  (encoder2): FPN(
    (fc1): Linear(in_features=1489, out_features=512, bias=True)
    (act_func): ReLU()
    (fc2): Linear(in_features=512, out_features=300, bias=True)
    (dropout): Dropout(p=0.0, inplace=False)
  )
  (fc_gat): Linear(in_features=300, out_features=300, bias=True)
  (fc_fpn): Linear(in_features=300, out_features=300, bias=True)
  (act_func): ReLU()
  (ffn): Sequential(
    (0): Dropout(p=0.0, inplace=False)
    (1): Linear(in_features=600, out_features=300, bias=True)
    (2): ReLU()
    (3): Dropout(p=0.0, inplace=False)
    (4): Linear(in_features=300, out_features=27, bias=True)
  )
)
Epoch 0
Train auc = 0.579267
Validation auc = 0.571678
Validation Hepatobiliary disorders auc = 0.630990
Validation Metabolism and nutrition disorders auc = 0.583998
Validation Product issues auc = 0.887324
Validation Eye disorders auc = 0.595238
Validation Investigations auc = 0.554336
Validation Musculoskeletal and connective tissue disorders auc = 0.502412
…
        (attention_5): GATLayer(
          (dropout): Dropout(p=0.0, inplace=False)
          (leakyrelu): LeakyReLU(negative_slope=0.2)
        )
        (attention_6): GATLayer(
          (dropout): Dropout(p=0.0, inplace=False)
          (leakyrelu): LeakyReLU(negative_slope=0.2)
        )
        (attention_7): GATLayer(
          (dropout): Dropout(p=0.0, inplace=False)
          (leakyrelu): LeakyReLU(negative_slope=0.2)
        )
        (out_att): GATLayer(
          (dropout): Dropout(p=0.0, inplace=False)
          (leakyrelu): LeakyReLU(negative_slope=0.2)
        )
      )
    )
  )
  (encoder2): FPN(
    (fc1): Linear(in_features=1489, out_features=512, bias=True)
    (act_func): ReLU()
    (fc2): Linear(in_features=512, out_features=300, bias=True)
    (dropout): Dropout(p=0.0, inplace=False)
  )
  (fc_gat): Linear(in_features=300, out_features=300, bias=True)
  (fc_fpn): Linear(in_features=300, out_features=300, bias=True)
  (act_func): ReLU()
  (ffn): Sequential(
    (0): Dropout(p=0.0, inplace=False)
    (1): Linear(in_features=600, out_features=300, bias=True)
    (2): ReLU()
    (3): Dropout(p=0.0, inplace=False)
    (4): Linear(in_features=300, out_features=12, bias=True)
  )
)
Epoch 0
Train auc = 0.784174
Validation auc = 0.784575
Validation NR-AR auc = 0.795143
Validation NR-AR-LBD auc = 0.826370
Validation NR-AhR auc = 0.866695
Validation NR-Aromatase auc = 0.736628
Validation NR-ER auc = 0.720362
Validation NR-ER-LBD auc = 0.791857
Validation NR-PPAR-gamma auc = 0.827539
Validation SR-ARE auc = 0.714205
Validation SR-ATAD5 auc = 0.766091
…
        (attention_5): GATLayer(
          (dropout): Dropout(p=0.0, inplace=False)
          (leakyrelu): LeakyReLU(negative_slope=0.2)
        )
        (attention_6): GATLayer(
          (dropout): Dropout(p=0.0, inplace=False)
          (leakyrelu): LeakyReLU(negative_slope=0.2)
        )
        (attention_7): GATLayer(
          (dropout): Dropout(p=0.0, inplace=False)
          (leakyrelu): LeakyReLU(negative_slope=0.2)
        )
        (out_att): GATLayer(
          (dropout): Dropout(p=0.0, inplace=False)
          (leakyrelu): LeakyReLU(negative_slope=0.2)
        )
      )
    )
  )
  (encoder2): FPN(
    (fc1): Linear(in_features=1489, out_features=512, bias=True)
    (act_func): ReLU()
    (fc2): Linear(in_features=512, out_features=300, bias=True)
    (dropout): Dropout(p=0.0, inplace=False)
  )
  (fc_gat): Linear(in_features=300, out_features=300, bias=True)
  (fc_fpn): Linear(in_features=300, out_features=300, bias=True)
  (act_func): ReLU()
  (ffn): Sequential(
    (0): Dropout(p=0.0, inplace=False)
    (1): Linear(in_features=600, out_features=300, bias=True)
    (2): ReLU()
    (3): Dropout(p=0.0, inplace=False)
    (4): Linear(in_features=300, out_features=2, bias=True)
  )
)
Epoch 0
Train auc = 0.833827
Validation auc = 0.307980
Validation FDA_APPROVED auc = 0.218391
Validation CT_TOX auc = 0.397569
Epoch 1
Train auc = 0.868830
Validation auc = 0.391613
Validation FDA_APPROVED auc = 0.298851
Validation CT_TOX auc = 0.484375
Epoch 2
Train auc = 0.934295
Validation auc = 0.533070
Validation FDA_APPROVED auc = 0.475862
Validation CT_TOX auc = 0.590278
…
        (attention_2): GATLayer(
          (dropout): Dropout(p=0.1, inplace=False)
          (leakyrelu): LeakyReLU(negative_slope=0.2)
        )
        (attention_3): GATLayer(
          (dropout): Dropout(p=0.1, inplace=False)
          (leakyrelu): LeakyReLU(negative_slope=0.2)
        )
        (attention_4): GATLayer(
          (dropout): Dropout(p=0.1, inplace=False)
          (leakyrelu): LeakyReLU(negative_slope=0.2)
        )
        (out_att): GATLayer(
          (dropout): Dropout(p=0.1, inplace=False)
          (leakyrelu): LeakyReLU(negative_slope=0.2)
        )
      )
    )
  )
  (encoder2): FPN(
    (fc1): Linear(in_features=1489, out_features=512, bias=True)
    (act_func): ReLU()
    (fc2): Linear(in_features=512, out_features=500, bias=True)
    (dropout): Dropout(p=0.05, inplace=False)
  )
  (fc_gat): Linear(in_features=500, out_features=600, bias=True)
  (fc_fpn): Linear(in_features=500, out_features=400, bias=True)
  (act_func): ReLU()
  (ffn): Sequential(
    (0): Dropout(p=0.05, inplace=False)
    (1): Linear(in_features=1000, out_features=500, bias=True)
    (2): ReLU()
    (3): Dropout(p=0.05, inplace=False)
    (4): Linear(in_features=500, out_features=1, bias=True)
  )
)
Epoch 0
Train rmse = 14.380114
Validation rmse = 10.953250
Epoch 1
Train rmse = 3.140964
Validation rmse = 2.961114
Epoch 2
Train rmse = 5.924258
Validation rmse = 2.304212
Epoch 3
Train rmse = 5.038161
Validation rmse = 1.684904
Epoch 4
Train rmse = 5.330413
Validation rmse = 1.466568
Epoch 5
Train rmse = 4.578494
Validation rmse = 1.328022
Epoch 6
…
        (attention_4): GATLayer(
          (dropout): Dropout(p=0.4, inplace=False)
          (leakyrelu): LeakyReLU(negative_slope=0.2)
        )
        (attention_5): GATLayer(
          (dropout): Dropout(p=0.4, inplace=False)
          (leakyrelu): LeakyReLU(negative_slope=0.2)
        )
        (attention_6): GATLayer(
          (dropout): Dropout(p=0.4, inplace=False)
          (leakyrelu): LeakyReLU(negative_slope=0.2)
        )
        (out_att): GATLayer(
          (dropout): Dropout(p=0.4, inplace=False)
          (leakyrelu): LeakyReLU(negative_slope=0.2)
        )
      )
    )
  )
  (encoder2): FPN(
    (fc1): Linear(in_features=1489, out_features=512, bias=True)
    (act_func): ReLU()
    (fc2): Linear(in_features=512, out_features=400, bias=True)
    (dropout): Dropout(p=0.05, inplace=False)
  )
  (fc_gat): Linear(in_features=400, out_features=480, bias=True)
  (fc_fpn): Linear(in_features=400, out_features=320, bias=True)
  (act_func): ReLU()
  (ffn): Sequential(
    (0): Dropout(p=0.05, inplace=False)
    (1): Linear(in_features=800, out_features=400, bias=True)
    (2): ReLU()
    (3): Dropout(p=0.05, inplace=False)
    (4): Linear(in_features=400, out_features=1, bias=True)
  )
)
Epoch 0
Train rmse = 3.599315
Validation rmse = 1.585689
Epoch 1
Train rmse = 4.438892
Validation rmse = 1.857233
Epoch 2
Train rmse = 2.957194
Validation rmse = 1.208037
Epoch 3
Train rmse = 3.006379
Validation rmse = 0.929856
Epoch 4
Train rmse = 3.277140
Validation rmse = 0.782967
Epoch 5
Train rmse = 3.420386
Validation rmse = 0.820763
Epoch 6
Train rmse = 3.645018
…
